5ouza3bol_hamdi.pt (torch, 6559 bytes, 7 tensors)

encoder.0.weight f4 [1, 16, 3]
000000 dc 80 bb bc d8 0a 8a 3c 2a a4 30 bd fc 4a bd bd
       -0.022888593 0.016850874 -0.04312531 -0.09242818
000010 3b 79 2a bd 0b 4d 0c be 08 a0 ae 3d c4 78 0e 3d
       -0.04161952 -0.13701265 0.08526617 0.03478314
000020 2f 69 c7 3d 4c d6 75 bd ac cc c2 3d f2 54 80 3d
       0.09736859 -0.060018823 0.09511694 0.06266202
000030 50 b5 99 bd 8a 4d eb 3d 0b 9f 92 bd 68 04 f3 3d
       -0.07505286 0.11489399 -0.07159241 0.11866075
000040 28 34 d9 3d 7f 08 a0 bd 12 b4 98 3d 8c 18 ef bc
       0.10605651 -0.078141205 0.07456221 -0.02918651
000050 60 99 0b be 2a 2b b0 bc dc dd dc bd 0f a3 16 bd
       -0.13632727 -0.021504957 -0.10784504 -0.0367766
000060 b0 29 95 3c 3a 3b 8e bd e0 86 5f bc ed dd 89 3d
       0.018208355 -0.0694489 -0.013642997 0.06731782
000070 3f 59 0d 3e 2a 28 5d 3d 57 27 93 3d 92 20 a8 3d
       0.13803576 0.05399338 0.07185238 0.08209337
000080 2c 53 1e bd 8c 1f 71 3d b0 bc f1 3c a5 93 c6 3d
       -0.038653538 0.058867976 0.029508919 0.0969613
000090 96 51 83 3c 16 61 e3 3d b6 9a cb bc 47 0d ee bd
       0.016030114 0.11102502 -0.024854045 -0.11623626
0000a0 b1 db 6d 3d d0 37 e0 bd e4 2e 19 bd f7 a8 98 bd
       0.058070842 -0.109481454 -0.037398234 -0.074541025
0000b0 8c 4d 46 3d 70 ee cf bd 26 b4 f4 bb 21 23 61 bd
       0.0484138 -0.101529 -0.0074677644 -0.054965142

encoder.0.bias f4 [16]
000000 ea 36 cf bd cd b4 ef 3d 84 4e c9 bd c8 fb e6 bd
       -0.10117896 0.11704407 -0.09829429 -0.11278492
000010 01 7b 89 3d 78 f8 08 be ab 18 ea bd eb ad 06 3e
       0.06712914 -0.13376033 -0.11430486 0.13152282
000020 90 ee a3 bd 04 91 03 3e a1 10 24 3d b1 4b 01 be
       -0.080044866 0.12848288 0.04005492 -0.1262653
000030 ed e4 8f 3c 04 6a c4 3d 4e 91 d1 bd 7a 6a 91 3d
       0.017565215 0.095905334 -0.10232793 0.07100387

encoder.2.weight f4 [16, 8, 3]
000000 04 6f 06 3e 00 13 ee 3d 80 8f 42 3c 4a 22 fc bd
       0.13128287 0.11624718 0.011875033 -0.123112276
000010 d5 1f df bd a0 33 f1 3d 96 8a 22 3e 88 b7 ff bc
       -0.10894743 0.11777425 0.15873179 -0.031215444
000020 80 09 76 bd f6 83 49 3e 10 6e af 3c 60 da 3b be
       -0.060067654 0.19679245 0.021414787 -0.18345022
000030 5a 71 41 3e b5 6b cb bd fa 58 01 be 84 d5 2c 3e
       0.18890896 -0.09932653 -0.12631598 0.16878325
000040 f4 d4 ff 3d 98 b1 fc 3d 60 83 fe 3b f8 46 b8 3c
       0.124917895 0.12338561 0.007767126 0.022494778
000050 14 d3 1c 3e 50 a2 0e be aa 24 38 3e 70 e1 4a 3e
       0.15314895 -0.13929105 0.17982736 0.1981256
000060 f6 56 47 3e 8a f7 c9 bd 08 51 0f 3e 0c 6c 0b be
       0.19466767 -0.098616675 0.13995755 -0.13615435
000070 ec ce 3a 3e 88 c1 13 be 01 06 1c 3e 0f a9 c8 bd
       0.18242997 -0.14429295 0.15236665 -0.0979787
000080 87 bc 18 3d a1 c0 3b bd 84 49 5d bc 66 f0 d6 3c
       0.03728917 -0.045838002 -0.013506297 0.026237678
000090 2c 3c 49 be 90 97 45 3e 37 81 0f be 96 cc 44 be
       -0.1965186 0.19296098 -0.14014135 -0.19218668
0000a0 a0 a9 77 bd a7 09 02 bd 45 27 54 3e a2 90 03 be
       -0.0604645 -0.031747486 0.20718105 -0.12848142
0000b0 e8 ae bd bd e5 2c 95 3d 97 d4 27 be bc 31 6c bc
       -0.09261876 0.072839536 -0.1638969 -0.0144161545
0000c0 7e 74 8c 3d 9a 5b 46 be c4 e0 d9 3d d8 1b db bc
       0.068581566 -0.1937088 0.10638574 -0.026746675
0000d0 39 b7 66 3d 1f 32 08 be ce 80 44 3e 69 2d 0c be
       0.05632708 -0.1330037 0.1918976 -0.13689198
0000e0 af 89 0f bc 7d 73 dc 3d 16 7a 15 3c d4 17 0b be
       -0.008760854 0.10764215 0.009123346 -0.13583308
0000f0 46 da 5c bb eb 97 fc 3d 6c 29 03 bd 46 df 0f be
       -0.0033699437 0.123336636 -0.032021925 -0.14050016
000100 d5 05 91 bd 95 16 24 3e ff fd 6e 3d 22 bb 17 be
       -0.070811905 0.1602424 0.0583477 -0.14817479
000110 55 1d d2 3d 11 75 e3 3d 76 c9 43 be 68 2b 12 3d
       0.10259501 0.11106313 -0.1911982 0.035685927
000120 18 87 27 3e 88 66 41 3d 8e 43 24 3e 98 e7 32 3d
       0.16360128 0.047216922 0.16041395 0.043677896
000130 f0 9b df 3d c0 05 3f 3d a6 07 1a 3e a8 f3 19 3d
       0.109184146 0.046636343 0.1504198 0.037585884
000140 08 26 49 3e 25 0f c8 bd 1c 39 21 bd 52 e9 d8 bd
       0.19643414 -0.097685136 -0.039361104 -0.10591377
000150 70 c3 15 3d f7 62 da bd b0 c9 5f bc 46 a3 00 3e
       0.036563337 -0.10663407 -0.013658926 0.12562284
000160 00 9f 2a 3c 1f 13 3e be 8a 14 a1 bd 80 8f 57 3d
       0.010413885 -0.18561982 -0.07865246 0.052627087
000170 34 1c 3a 3d 48 65 b2 3d 90 5c c3 bc 9e 4c 94 bd
       0.045437053 0.08710724 -0.023847848 -0.07241176
000180 44 62 dc bd 32 c2 91 bd bf 3d 04 be 0f e0 82 3d
       -0.1076093 -0.07117118 -0.1291418 0.06390392
000190 7e c5 10 3e cd c0 e9 bd c1 bf 15 3e 77 18 1a bd
       0.14137837 -0.11413727 0.1462393 -0.037620988
0001a0 4a 9f 3c 3e b6 a2 9d bc 2a aa 87 3d a6 44 35 3d
       0.18420139 -0.019242626 0.06624253 0.04425492
0001b0 fb cb da bd d3 20 07 3c 2a 67 2d bd 0d 9b db 3c
       -0.106834374 0.008247572 -0.042334713 0.026807332
0001c0 cf 59 9c 3b 27 69 df 3d 1c a8 08 3d 66 ee 2d 3e
       0.004771448 0.10908728 0.033363447 0.16985473
0001d0 dc 89 c6 ba 19 37 d6 3d 06 5b 01 3e fe e8 03 be
       -0.0015147286 0.10459728 0.12632379 -0.12881848
0001e0 c0 4a 54 3b 60 0c d0 3d 58 13 d3 3d df 59 42 be
       0.0032393187 0.1015861 0.10306424 -0.18979596
0001f0 0c ec e3 bd 87 b9 a3 bd 92 00 0d be 7e 6a 4e 3e
       -0.11129007 -0.07994371 -0.13769749 0.20157811
000200 88 81 e4 3d 05 2a f4 bd 88 a8 35 3e 98 d9 f3 bd
       0.111575186 -0.11922077 0.17740071 -0.11906737
000210 34 75 2d 3e 92 94 35 be 0c 93 4d 3e b8 3a 25 3e
       0.1693924 -0.17732456 0.20075625 0.1613568
000220 94 00 2d 3e 9f c6 c6 bd 30 a1 1d 3e e6 57 43 be
       0.16894752 -0.09705853 0.1539352 -0.190765
000230 2e 4b 35 be b8 f5 a7 3c a6 37 c9 bd 38 88 47 3d
       -0.1770446 0.02050291 -0.09825067 0.048713893
000240 08 b0 de 3d 22 eb 1e 3e 48 b6 13 be c6 47 39 3e
       0.10873419 0.15519384 -0.14425004 0.18093786
000250 c8 a4 34 3d 6c 30 40 3e b6 04 14 3e a1 1f fe bd
       0.04410246 0.18768471 0.14454922 -0.124083765
000260 f4 a5 a8 bd 94 c5 16 3e b4 92 1a be 9e 13 2b be
       -0.08234778 0.14723808 -0.15095025 -0.16706702
000270 04 36 2b bd f8 64 35 bd 60 7a e6 3d 52 bf 18 3e
       -0.04179956 -0.044285744 0.1125381 0.14916733
000280 10 7c 21 3e 00 01 c5 3b 90 e7 cb 3d 8c 94 26 be
       0.15769982 0.006012082 0.099562764 -0.16267604
000290 b8 be 17 be 92 f5 02 be 24 01 c4 3d 22 bb 33 be
       -0.14818847 -0.1278899 0.0957053 -0.17551854
0002a0 ab 99 f1 3b b8 13 4a be 71 14 22 3e 6b e6 32 3e
       0.007373055 -0.19734085 0.1582811 0.1747071
0002b0 18 27 12 3c 84 5f fc 3c a9 7f 3d 3e 77 96 2b be
       0.0089204535 0.030807264 0.1850573 -0.16756617
0002c0 8c 6e 42 be 1a 3e a3 bd ad c3 a8 bd 77 9b ad 3d
       -0.18987483 -0.07970829 -0.08240447 0.08476918
0002d0 c7 b6 50 be 82 27 3d 3e c4 69 36 3e 14 b5 fa 3d
       -0.20382224 0.18472102 0.17813784 0.12241569
0002e0 e0 e8 6d bc 66 aa 24 3e a7 62 98 3d c8 f9 13 3e
       -0.014520854 0.16080627 0.074406914 0.14450753
0002f0 28 f6 b7 3b 5e 49 99 bd b6 59 19 be 1b 73 ee bd
       0.005614061 -0.07484697 -0.14975628 -0.116430484
000300 55 16 dd bd 42 df 4a be 3c 55 0b 3e 12 a3 41 be
       -0.10795275 -0.19811729 0.13606733 -0.18909863
000310 c2 4e 16 3e f8 05 29 3e b8 a5 5d bd 8c eb 0e be
       0.14678481 0.16506183 -0.05411312 -0.13957042
000320 3f d9 d8 bd 28 9e 2d 3e a4 93 2f 3e 84 7c a4 bd
       -0.105883114 0.16954863 0.17146164 -0.08031562
000330 4a 61 19 be 88 39 a6 bd 08 12 c4 3d 00 6c 3c 3e
       -0.14978519 -0.08116442 0.09573752 0.18400574
000340 f0 f9 43 bc c6 b4 b8 bd 48 31 f3 3d b8 2a ef bc
       -0.011961445 -0.09018855 0.11874634 -0.029195175
000350 d8 93 1a 3d a8 a7 cb bd 67 6c df bd 78 29 b5 bc
       0.03773865 -0.09944087 -0.10909348 -0.0221145
000360 14 b4 c4 bc e1 05 54 3e ea 06 cd 3d 7b 35 f9 bd
       -0.02401165 0.20705368 0.100110844 -0.12168404
000370 5f b4 93 bd 5a 52 1f be 2a 43 73 3d 8e 15 0e 3e
       -0.072121374 -0.15558758 0.059390225 0.1387541
000380 8e c1 9b 3d 5f 82 1f be e1 31 04 be d2 bd 8c 3d
       0.07605277 -0.15577076 -0.12909652 0.06872143
000390 82 3f 1c 3e 18 64 ea bd 13 76 57 bd 4c 69 3e 3e
       0.15258601 -0.114448726 -0.05260284 0.18594855
0003a0 81 9c 41 be 6d d6 26 3e 5c 9b ee bc cb 76 35 3e
       -0.18907358 0.16292734 -0.029126815 0.17721097
0003b0 b1 6c 21 be e9 ca 9d bd c5 01 93 bd 7f e3 0c be
       -0.15764119 -0.07704718 -0.07178072 -0.13758658
0003c0 01 87 81 bd 52 95 44 3e cc e0 3e 3e b4 d9 09 3e
       -0.06324578 0.19197586 0.1864044 0.13461953
0003d0 d2 be 55 3e a4 a5 d2 bd bb f3 fc bc fe 84 04 3e
       0.20873573 -0.102855 -0.030877938 0.12941357
0003e0 24 7b d9 3d f6 33 30 3e f3 63 fe 3d a7 24 21 3d
       0.1061919 0.17207322 0.124214076 0.039341595
0003f0 af 50 0b 3e d6 7a b9 bc 51 ed 04 be 5b 7c 44 3e
       0.13604997 -0.02264158 -0.12981154 0.19188063

encoder.2.bias f4 [8]
000000 2d 96 4e bd 7d 28 9e 3c 03 51 ca bd fa a5 11 3e
       -0.050436188 0.019306416 -0.09878733 0.14223471
000010 2b fc 72 3d 7a a1 4d be 61 c1 ad bc 86 ba 26 be
       0.059322517 -0.2008113 -0.021210374 -0.1628209

decoder.0.weight f4 [16, 8, 3]
000000 87 ff 81 3d 94 9d 2a 3d 08 63 6c 3d d2 8d 24 3e
       0.06347566 0.041654184 0.05771163 0.16069725
000010 67 77 bd 3d cd 6e 9b bd 67 8f 10 be 31 02 ce 3b
       0.0925129 -0.07589493 -0.14117204 0.0062868823
000020 b3 c1 28 bd ac b7 e7 3c df b3 ce 3d 5f eb 01 3e
       -0.04120035 0.028285824 0.100929014 0.12687443
000030 ba af 97 bd 43 98 40 3e f7 fb 35 3d aa e4 39 bc
       -0.07406564 0.18808083 0.044429746 -0.011346022
000040 fc 5e 07 bd fb 0f ad bd 7c ec 4b bd eb 5f ef bd
       -0.03304957 -0.08450314 -0.049786076 -0.11688217
000050 f4 80 52 bb 8f 36 ed 3d 21 09 aa bd 82 d4 07 bb
       -0.003212032 0.11582672 -0.083025225 -0.002072603
000060 25 2c 2f bd 31 ed 98 bc 0e e2 2b 3e b6 66 10 3e
       -0.04276671 -0.01866779 0.16785452 0.14101681
000070 f4 e7 22 3e 23 22 60 bc 7f 3a ca 3d 6b ec 38 3d
       0.15908796 -0.013680014 0.098744385 0.04514734
000080 1a 2d 3c bd 49 5a d1 3c 40 b6 1b be c8 5a 43 be
       -0.04594145 0.025555747 -0.15206242 -0.19077599
000090 c4 f6 3b be 0f 6b f5 3d 07 74 cd 3d 43 0c 0c 3d
       -0.18355852 0.119833104 0.10031896 0.03419138
0000a0 16 57 4d bc 33 3c e0 3d d5 52 2d bd a1 a8 51 bd
       -0.01253297 0.10948982 -0.042315323 -0.051186208
0000b0 56 75 10 3e f2 d8 0b 3d 66 86 86 3d 48 46 2d 3c
       0.1410726 0.034142442 0.06568603 0.010575838
0000c0 24 cb 29 3e 2c 8d 05 3d 6d e2 37 be 85 fc d7 3d
       0.16581398 0.032605335 -0.17957468 0.10546211
0000d0 df 37 1e 3e ee 31 3f 3e 00 ab 88 3c 3a e2 0a be
       0.15451 0.1867139 0.016683102 -0.13562861
0000e0 ef c3 1a 3e 15 be ce 3d 37 71 34 3e 9e d2 4f be
       0.15113805 0.10094849 0.17621313 -0.20295188
0000f0 11 84 b5 3d b7 19 ae 3d 6a e8 17 3d c6 d2 fb 3d
       0.0886308 0.085009985 0.03708688 0.12296061
000100 56 ff 9d bd 31 82 70 3b d2 6b 56 be 36 af 32 3d
       -0.07714717 0.0036698694 -0.20939568 0.043624125
000110 8c 5f 32 bc ab 0a 14 be c5 14 01 3e e8 a0 e7 bd
       -0.010887038 -0.14457195 0.12605579 -0.11309987
000120 4c 69 5d bb 98 dc 02 be 0a b7 8b 3d 2a 31 d5 3d
       -0.0033784686 -0.12779462 0.06822021 0.10409768
000130 5c e0 8d bd 4e d9 53 bd 49 1b 23 be 2e 63 0a 3e
       -0.06927559 -0.05172091 -0.15928377 0.13514397
000140 26 19 33 3d 24 00 e8 3d 45 ca 67 3c 8f 26 0c be
       0.043725155 0.11328152 0.014147346 -0.13686584
000150 1f 5d 00 be eb 01 43 3d bd 44 90 bc ca f9 3c be
       -0.12535523 0.04760925 -0.017610902 -0.18454662
000160 6d 6d 86 bd 57 07 80 3d 12 16 dc bc 21 43 13 be
       -0.0656384 0.062514 -0.026865993 -0.14381076
000170 14 6d eb bc 06 5b 4c 3e 5c 41 bd 3d 5b 0d 18 3c
       -0.028738536 0.19956598 0.09240982 0.009280528
000180 e3 94 f7 3d fa be 3f be d0 0d 1f be 41 2f 90 3d
       0.12088945 -0.18725196 -0.15532613 0.07040263
000190 c3 db 26 be 91 91 f3 3c 1a 63 67 bd 51 44 d3 3d
       -0.1629477 0.029732497 -0.056490995 0.10315765
0001a0 55 70 b5 3d 08 93 57 3d 9d 62 7b 3c 46 2b 24 3e
       0.08859316 0.052630454 0.015343335 0.16032133
0001b0 84 ee 2f 3e 99 cd 01 3b 7e 4d 0d be 44 9e 01 3e
       0.1718083 0.0019806384 -0.13799092 0.1265803
0001c0 3b 73 1a be ee 64 3b be 5e 24 a1 3c 68 47 2c 3e
       -0.1508302 -0.1830022 0.019670662 0.16824114
0001d0 94 5f 06 3e d0 f1 8c 3d 89 ef 4c bd 63 a9 34 be
       0.13122398 0.068820596 -0.050033126 -0.17642741
0001e0 76 37 82 bd b0 db b2 3c d8 30 22 3d f4 a0 3d be
       -0.063582346 0.02183327 0.039597362 -0.1851843
0001f0 90 9a 7f 3c 44 a5 2f bd c0 61 6b 3d e0 34 b9 bc
       0.015600815 -0.04288222 0.05746627 -0.02260822
000200 b4 6e d3 3d 22 ba 23 3e 50 3d 41 bd 22 32 d4 bd
       0.10323849 0.15988973 -0.047177613 -0.103611246
000210 13 0d 23 be 0b ed 3c be d4 79 f1 3d f8 95 d9 3c
       -0.15922956 -0.184498 0.11790815 0.026560768
000220 f0 2c 63 3d 34 bf 2e be 0c 3a 01 be f5 5e e4 bd
       0.055462778 -0.17065126 -0.126198 -0.11150924
000230 00 9a 7e 3a 54 96 83 bd ca 0d 00 3e 80 e0 a1 3a
       0.0009712279 -0.06425157 0.1250526 0.0012350231
000240 84 17 46 3c ca 9f 38 be 2e e8 02 be e4 48 e2 3d
       0.0120905675 -0.18029705 -0.12783882 0.11049059
000250 6e de 21 bd 72 6f 56 3d ba 0c 12 bd 75 43 22 3e
       -0.039518766 0.052352376 -0.03565667 0.15846045
000260 79 ed 8e 3d 9f 50 5d 3d 21 5f 01 bd fd c1 40 be
       0.06978888 0.054031964 -0.031584863 -0.18824
000270 31 7c 4c 3d 0b 96 e1 3d 8a 83 af bc a1 1c 99 bc
       0.049923126 0.110149466 -0.021425027 -0.01869041
000280 4c b4 f7 3d 42 2b 06 be 2e 5e 14 3e 1d 5b dc 3d
       0.12094936 -0.13102439 0.14489052 0.10759566
000290 51 d8 be bd a4 00 0e 3e 99 cc ae bd 40 c8 bc 3d
       -0.09318603 0.13867432 -0.08535118 0.09217882
0002a0 97 88 2f be a0 26 c2 3d ee 2c 35 be 60 19 40 be
       -0.17141949 0.094800234 -0.1769292 -0.1875968
0002b0 4b 53 59 bd a8 64 4e 3d cd 1c 2f 3e 86 ed 16 3e
       -0.05305795 0.050388962 0.1710083 0.14739046
0002c0 5d 98 d3 3d 72 db 14 3e 39 24 17 be e6 39 26 bd
       0.10331795 0.14536837 -0.14759912 -0.04058256
0002d0 90 6b 46 3e 39 ea 09 3e 3f 59 0c 3d 73 ad f8 bd
       0.1937697 0.13468255 0.0342648 -0.12142458
0002e0 dc fc 41 3e d7 70 21 3d 8a 15 3b be 07 60 2b bd
       0.18944114 0.039414253 -0.18269935 -0.041839626
0002f0 94 5f bb bc 59 58 c2 bd 92 4c 2d 3c 15 c8 40 3d
       -0.022872724 -0.09489507 0.010577338 0.047065813
000300 75 77 22 be c0 79 e2 3b 44 b2 04 be 59 70 fa bd
       -0.15865882 0.0069114864 -0.12958628 -0.1222846
000310 d2 90 38 3e 1c 0b 9b bd 00 20 c4 3b e8 0d f1 3d
       0.18023995 -0.07570478 0.00598526 0.117702305
000320 ca ab 0a 3e 14 0b 87 3d 90 31 3a bd c6 4e 0f 3e
       0.13542095 0.0659391 -0.045457423 0.13994893
000330 92 f0 00 be 4b ef 16 be 3e ad cc bd a2 2d 30 3e
       -0.1259177 -0.1473972 -0.09993981 0.17204908
000340 74 40 2d bd 68 d4 fe 3c 2c f9 ed bd 6a 93 0a be
       -0.042297795 0.031107143 -0.116197914 -0.13532797
000350 1e a8 dc bd aa e6 f0 bd 76 b8 22 3e b0 97 10 3c
       -0.10774253 -0.11762746 0.15890679 0.008825228
000360 18 24 99 bd 10 6d 43 bd 12 35 b7 3d c4 2f 46 3e
       -0.074775875 -0.047711432 0.08945669 0.19354159
000370 91 d4 30 be 1a 0c 07 be 14 48 03 3e b2 89 2c 3d
       -0.17268588 -0.1318821 0.12820464 0.042123504
000380 e2 a8 30 3e 26 d5 fe 3c 64 d3 49 3e ba 10 16 3e
       0.17251924 0.031107496 0.19709545 0.14654818
000390 0b 43 8f 3c cf 3c b4 bd b7 66 4d 3b b4 ff 20 3d
       0.017488023 -0.08800661 0.003134174 0.039306358
0003a0 f8 0e 48 3e 7b 04 0b 3e 87 dc 0c 3d 26 71 52 3e
       0.1953696 0.13575928 0.03439 0.20550975
0003b0 98 54 9e bd fd cd 67 bd 6f 2c 56 bd 00 9d 05 3e
       -0.07730979 -0.05659293 -0.05228847 0.13048172
0003c0 7c cb db bd 16 62 18 3e c2 f1 3d 3d 52 59 ea 3d
       -0.10732171 0.14881167 0.046373136 0.11442818
0003d0 c3 1d e9 3c 8f a0 a4 3c 7f 1c 2c be aa 48 04 be
       0.028456574 0.020096092 -0.16807745 -0.12918344
0003e0 76 45 ab 3b 2c eb 53 3e ba 9e e6 3d dc d7 1e 3e
       0.0052267862 0.2069518 0.112607434 0.15512031
0003f0 f5 d3 df bd f6 b7 7e 3d 80 0c 36 be 9c f6 47 be
       -0.109290995 0.062187158 -0.17778206 -0.19527668

decoder.0.bias f4 [16]
000000 a8 ce 39 3e 75 1c 11 be 7c ea 2a be 94 cf 56 3e
       0.1814524 -0.14171012 -0.16691011 0.20977622
000010 c4 82 23 3e d0 53 c9 bc 52 bd 20 bd cc 46 e3 3d
       0.15967852 -0.024576098 -0.03924305 0.11097488
000020 90 83 d1 3d 09 a8 7e bd 0b 7e 29 3e 2e cd 17 bd
       0.10230172 -0.06217197 0.16551988 -0.03706091
000030 c6 5c 22 be 90 a2 18 be 31 d9 56 3d a0 f3 95 bd
       -0.15855703 -0.14905763 0.052453224 -0.073218584

decoder.2.weight f4 [1, 16, 3]
000000 4e 41 68 bd 94 27 ae bd 67 90 94 3b af 66 da 3c
       -0.056702904 -0.08503643 0.0045338157 0.026660291
000010 30 30 50 bd 8b bd f7 bd 4d 9f eb 3d 87 11 a2 3d
       -0.050827205 -0.12096699 0.115049936 0.07913499
000020 b3 53 ff bd 8b 61 b4 3d ea 95 96 bd 42 62 01 be
       -0.12467136 0.08807667 -0.073528126 -0.12635139
000030 e6 15 96 3d 31 6f 91 bd e2 0d 02 3e 80 e4 36 bc
       0.073283955 -0.07101286 0.12700608 -0.011162877
000040 64 3e 0b 3e 20 4f f8 bb 41 a9 24 bd 2c 83 98 bd
       0.13598019 -0.007577792 -0.040200476 -0.07446894
000050 c6 1a 4e 3d f6 63 fb 3d 42 e3 c5 bd 54 56 b7 3d
       0.050318502 0.122749254 -0.096624866 0.08952013
000060 80 ca 28 bd 32 05 b9 bd ec 91 10 bd 82 06 c0 bc
       -0.041208744 -0.09034194 -0.035295412 -0.023440603
000070 d3 bd a3 bd fc 87 c8 bd b0 df a5 bd c4 45 96 bd
       -0.079951905 -0.09791562 -0.08099306 -0.073375255
000080 aa 41 95 bd df 6c af bd 7b 5d 7e 3d 05 8a 9b 3d
       -0.07287915 -0.085656874 0.06210087 0.075946845
000090 99 be b0 bd c3 52 be 3c 35 54 bc 3d 18 1f 04 3e
       -0.086301036 0.023232823 0.09195749 0.12902486
0000a0 00 8e 24 bc 68 9a 05 3d 3e 58 83 3c 03 a9 d9 3c
       -0.010043621 0.032617956 0.016033288 0.026569849
0000b0 3f a7 73 bd a0 ff a7 3d 2b 2b 09 be 0f d9 f3 bd
       -0.05948567 0.082030535 -0.13395374 -0.11906635
