model_checkpoint.pth (torch, 526165 bytes, 3 tensors)

conv1.weight f4 [32, 1, 2048]
000000 36 77 1b 3c b3 78 8b bc 60 ee 64 bb 92 4c 57 3c
       0.009488871 -0.017025327 -0.0034932122 0.013140814
000010 86 9b 73 bc b0 d1 84 3a 7a 74 62 3c 24 a7 f9 3b
       -0.014868623 0.0010133293 0.0138217155 0.0076188017
000020 30 42 f9 3a c0 43 3d bc 22 34 34 3c 87 1e 8e 3c
       0.0019016918 -0.011551797 0.010998758 0.017348541
000030 f9 a1 8c 3c 18 61 eb 3b 3a 7d 53 3c dd d3 af 3c
       0.017167078 0.0071832053 0.012908274 0.021463329
000040 08 88 11 bb 44 83 77 bc 25 33 2c bc 4d 25 3f bc
       -0.0022206325 -0.01510698 -0.010510241 -0.011666608
000050 20 82 36 bb 70 48 5a bb 92 30 73 3c 5d 65 83 3c
       -0.0027848557 -0.0033307336 0.014843123 0.016039545
000060 6a a0 52 bc da 5d 51 bc ea de 0f 3c 42 a5 24 3c
       -0.0128556285 -0.012778724 0.008781174 0.010049166
000070 c3 48 a5 bc 3f 02 8c 3c 76 ee 67 3c 0c d8 85 bb
       -0.020176297 0.017090915 0.014155975 -0.0040845927
000080 1e 6f 99 bc 00 4d a8 39 00 d2 7e 3a 64 d4 ab bb
       -0.018729743 0.00032100827 0.00097206235 -0.005243825
000090 74 22 0f 3c 23 c8 b0 3c 3b 05 a0 bc f8 c1 03 bb
       0.008736242 0.021579808 -0.019533744 -0.0020104628
0000a0 20 a5 75 bb 26 94 43 3c 51 8d b1 3c b0 1f db ba
       -0.0037482455 0.011937177 0.02167383 -0.0016717818
0000b0 60 ea c3 ba 7e 19 3f 3c ac 7e 78 bc ae 3b 53 3c
       -0.0014947169 0.011663793 -0.01516692 0.012892647
0000c0 a9 d4 85 3c 64 2d 13 3c bf dc ad 3c 59 d2 92 bc
       0.016336756 0.00898299 0.021223424 -0.017922567
0000d0 c2 21 a3 bc 80 06 fd ba 5b aa 88 bc cf e6 83 3c
       -0.019913558 -0.0019304305 -0.016682794 0.016101269
0000e0 22 60 27 3c 78 7a 6c bc 98 47 e3 3b b3 b4 2a bc
       0.010215791 -0.014433496 0.006936025 -0.010419059
0000f0 56 26 b3 bc 3d bb 4c bc f0 5b d1 bb 1c ec ac bc
       -0.021868866 -0.012495813 -0.0063891336 -0.02110868
000100 88 ac 18 bc 09 2c 85 3c 24 bd c0 bb 10 91 3a bc
       -0.009318478 0.01625635 -0.0058819223 -0.011387125
000110 b4 c1 a3 bb e3 12 49 bc be e8 26 3c 34 6f b2 3b
       -0.0049974564 -0.012272569 0.010187326 0.0054453854
000120 cb fe 81 bc 36 c8 40 3c 6e 5d 00 3c ed aa 9c 3c
       -0.015868565 0.011766484 0.007834775 0.019124473
000130 e8 76 86 bb 2b 25 28 bc 75 e0 4b bc 33 4b 43 bc
       -0.00410353 -0.010262768 -0.012443651 -0.011919784
000140 1c 72 a0 bb 10 eb 56 3b 4e 91 1a 3c 90 58 50 3b
       -0.0048964154 0.0032793917 0.009434057 0.0031791069
000150 4a fd 39 bc ba 64 5c 3c ee ac 6e 3c f0 03 25 bc
       -0.011351893 0.013451749 0.014567597 -0.01007174
000160 70 0f 70 3b b1 5d 83 3c 30 96 90 bb 8a 90 28 bc
       0.0036630295 0.016035886 -0.004412435 -0.010288367
000170 00 17 83 b8 b8 55 cd bb fa 31 68 3c dc 9b cc bb
       -6.250851e-05 -0.006266322 0.014172072 -0.006244166
000180 24 a6 d0 bb 93 f7 96 3c a8 ad 8b 3b e8 3b 49 3b
       -0.0063674618 0.0184286 0.004262645 0.0030705873
000190 46 a9 07 3c ba 73 1e 3c 00 07 b0 3a b7 62 8d 3c
       0.008280104 0.009671146 0.001342982 0.017258985
0001a0 cc db cf 3b 7f d0 93 3c 9c a9 b7 bb cc 6c 87 bb
       0.0063433405 0.018043755 -0.005604936 -0.0041328426
0001b0 27 e4 61 bc 52 5a 81 bc a9 50 51 bc 90 42 91 bb
       -0.013787306 -0.015790138 -0.012775579 -0.0044329837
0001c0 5c e7 c2 3b 2e ff 9e bc ad a8 a4 3c 60 10 f4 ba
       0.0059479903 -0.019408789 0.020099962 -0.0018620603
0001d0 58 77 01 3c e2 87 2a 3c 36 8e 56 3c 88 37 1c bb
       0.007901989 0.010408374 0.013095429 -0.002383681
0001e0 c0 88 f8 3a 84 9c d1 3b 80 ec 51 bb 30 c5 10 bb
       0.0018961653 0.006396832 -0.0032031834 -0.002209019
0001f0 83 76 ab 3c 9d b7 a0 3c a1 44 ab 3c 54 a5 44 bc
       0.020930534 0.019618804 0.020906748 -0.012002308
000200 ea 16 67 3c e6 1f d8 bb ef 5e 9c 3c 10 b5 f9 bb
       0.014104584 -0.0065955995 0.019088237 -0.0076204613
000210 c3 1c 67 bc fc 86 e0 3b 34 af be 3b 20 b8 f1 3b
       -0.014105978 0.006852029 0.0058192257 0.0073766857
000220 d2 65 01 bc ad 1e 1b bc 17 08 9c 3c 82 9e 1b 3c
       -0.007897811 -0.009467763 0.019046826 0.00949824
000230 fc b0 fb 3b 98 f2 74 bb ee 09 65 3c 16 d8 5d bc
       0.0076810103 -0.0037376042 0.013979418 -0.013540288
000240 7a 1e 7f 3c 7b 68 8e 3c b4 37 cb bb 7f 84 92 bc
       0.015571231 0.017383805 -0.0062017087 -0.017885445
000250 c8 6c 41 bb 18 6b 07 3b 23 10 32 bc b8 f5 f5 3b
       -0.0029514302 0.0020663198 -0.010868105 0.0075060986
000260 73 5a ac 3c e1 90 a3 bc aa d7 54 3c ab e6 10 bc
       0.021039223 -0.019966545 0.012990871 -0.008844058
000270 66 51 59 3c d0 15 c8 bb 0e ca 45 3c 8e d3 7a 3c
       0.013264036 -0.006106116 0.012072099 0.015309228
000280 25 64 87 3c 58 e1 c2 3b 40 63 87 3a c9 bd 8f bc
       0.016527245 0.005947273 0.0010329261 -0.017546551
000290 81 c0 8d 3c ea 69 4f 3c ba b7 9e bc 6b 0a 05 bc
       0.017303707 0.012659529 -0.019374717 -0.00812016
0002a0 7a ce 40 3c b2 07 5b 3c da a2 99 bc 94 ab c4 bb
       0.011767978 0.013368534 -0.018754411 -0.006001899
0002b0 94 48 46 bc e2 5f 5c 3c 93 a8 5e bc c0 94 c3 b9
       -0.012102265 0.013450595 -0.013589996 -0.00037304126
0002c0 d4 7b b7 3b 7b e3 b1 3c 90 e6 48 3b 5c 23 eb 3b
       0.0055994783 0.021714916 0.0030655004 0.007175846
0002d0 06 6e 7c bc 56 b5 a1 bc 69 bd 73 bc 73 c2 a8 bc
       -0.015407091 -0.019739788 -0.014876702 -0.020600533
0002e0 24 23 8b bb 0c 72 82 3b 35 f3 18 bc be 39 08 bc
       -0.0042461324 0.0039808806 -0.009335329 -0.008314548
0002f0 c4 f2 85 bc 12 0b 4c 3c 8c 18 94 bc 42 75 36 3c
       -0.016351111 0.012453811 -0.018078111 0.011136355
000300 c0 6d 43 bc fc 9d e1 bb 11 b3 ad 3c 5e 72 96 bc
       -0.011928022 -0.0068852883 0.02120355 -0.018365081
000310 ec 0a b3 3b 40 bc 1c 3b a2 99 86 bc da 1f 47 3c
       0.0054639485 0.0023915917 -0.01643068 0.01215359
000320 c4 08 cc bb cc d4 90 bc 20 34 3e bc df 2f 29 bc
       -0.006226631 -0.017679594 -0.011609107 -0.010326355
000330 3a e1 06 3c 28 4f 2e bc c0 68 4a bc 86 9c ac bc
       0.008232409 -0.0106389895 -0.012354076 -0.02107073
000340 b2 6c 58 3c 64 d0 a6 bb 7c f8 d1 3b c4 89 80 bb
       0.013209509 -0.00509076 0.0064077955 -0.003922673
000350 c6 6b 4c 3c 68 53 04 bc b9 0a a0 bc 30 d1 31 3b
       0.012476867 -0.008076526 -0.019536363 0.0027132742
000360 9e 8c d4 bb a8 d4 4c bb 14 ae 90 bc 12 6d 56 3c
       -0.0064864894 -0.0031254683 -0.017661132 0.013087528
000370 56 ac 7a 3c 96 f0 73 bc 3b ff 03 bc f8 69 f6 3b
       0.015299877 -0.014888903 -0.008056457 0.0075199567
000380 72 ca 35 3c 81 f7 12 bc 80 90 f9 39 80 22 be 39
       0.01109563 -0.008970142 0.00047600642 0.00036265329
000390 fe 48 ea bb 50 d2 80 3b b9 1e af bc b2 9e 84 bc
       -0.0071498146 0.003931321 -0.021376954 -0.016188953
0003a0 90 53 94 3b 83 a7 8d bc f1 0c b3 bc 99 cf a2 3c
       0.004526563 -0.01729179 -0.021856757 0.01987438
0003b0 1f 9c b1 bc a1 fe 90 3c f4 cc 08 3c 50 38 f2 bb
       -0.02168089 0.017699542 0.008349646 -0.007391967
0003c0 c0 f0 69 bc 00 f8 9e 3b 87 4e 99 3c ea 79 3a bc
       -0.014278591 0.0048513412 0.018714203 -0.011381606
0003d0 47 78 54 bc 1c f7 a0 bc c1 66 93 bc 9a 4b 6a bc
       -0.0129681295 -0.019649081 -0.017993333 -0.014300251
0003e0 b4 7b 58 bc cc d0 a9 3b af 2f 8b 3c 52 56 2a 3c
       -0.013213087 0.005182361 0.01699051 0.010396557
0003f0 eb cc 15 bc 30 c1 fe ba 20 68 10 3a 60 51 e3 3a
       -0.0091430945 -0.0019436236 0.000550868 0.0017342977

conv1.bias f4 [32]
000000 8e e8 02 3c 8f a2 54 bc 20 79 80 bb 41 d7 29 bc
       0.007990016 -0.01297821 -0.003920689 -0.010366262
000010 54 cb dc 3b cd 02 93 3c e6 b3 3a bc c0 bc 05 bc
       0.006738106 0.017945671 -0.01139543 -0.008162677
000020 41 4d 93 3c 91 6d 8d 3c 96 f2 19 bc 7b 66 8d 3c
       0.017981173 0.01726416 -0.009396216 0.01726078
000030 c8 00 82 bc da 14 42 3c a0 ee 69 3a 13 f9 91 bc
       -0.015869513 0.011845792 0.00089238025 -0.017818963
000040 a6 c7 69 bc b1 77 95 bc b0 95 57 3b 24 4a 9a bc
       -0.014268791 -0.01824555 0.0032895617 -0.018834181
000050 20 d1 01 bc 28 9c 3e bc 3d f7 a2 bc fb 4c 88 bc
       -0.007923394 -0.01163391 -0.019893283 -0.01663827
000060 ed 54 83 bc f2 46 33 3c c1 08 81 3c d0 14 b0 3b
       -0.016031707 0.010942208 0.015751245 0.005373575
000070 82 22 0c bc 5f f5 b1 bc 74 ce 37 bc 7f 8f 98 bc
       -0.008553149 -0.021723447 -0.011218656 -0.018623112

trsconv1.weight f4 [32, 1, 2048]
000000 88 37 17 bc ec 4c bd 3b 32 d3 aa bc 00 ca f9 3b
       -0.009229548 0.005776992 -0.020852659 0.007622957
000010 a0 0d ab 3a 48 f7 5a bc be 34 97 bc 34 75 e7 bb
       0.0013050325 -0.0133646205 -0.018457767 -0.0070635322
000020 49 89 af bc ea ea 4f 3c 40 28 85 39 e4 db 8f bb
       -0.021427767 0.012690285 0.00025397725 -0.0043902267
000030 8c d6 bf 3b f8 ea 50 bc 40 5c dd 3b 90 5f 9e 3b
       0.0058544334 -0.012751333 0.006755382 0.0048331693
000040 c9 a1 67 bc 88 ed ef 3b 9a 92 9d bc 35 51 95 bc
       -0.014137694 0.007322017 -0.019234944 -0.0182272
000050 c8 77 7d 3b a4 cd 23 bc 1c d3 a1 bc 2f e5 80 3c
       0.0038676132 -0.009997759 -0.019753985 0.015734283
000060 6e 53 64 3c b6 dd 20 3c ba bc 4d 3c d8 8f 41 bc
       0.013935907 0.009818485 0.012557203 -0.01181408
000070 fa 36 ae bc 30 be 8c bc 1a 32 83 bc 47 40 81 3c
       -0.02126645 -0.017180532 -0.016015101 0.01577772
000080 d2 2f 45 bc 6e e4 64 3c ed a3 a7 3c 3c bc c9 3b
       -0.012035327 0.0139704775 0.020463908 0.0061564725
000090 38 a0 08 3c 53 d1 a9 3c 88 6b 51 bc b8 cc 3e 3b
       0.00833898 0.020729696 -0.012781985 0.002911372
0000a0 f8 68 08 3b 48 02 14 bc 48 29 d6 bb 4a 47 70 3c
       0.002081452 -0.009033747 -0.006535683 0.014665434
0000b0 59 85 6d bc 98 c9 27 bb f7 09 aa 3c 42 49 ea bb
       -0.014497125 -0.0025602337 0.020756705 -0.0071498463
0000c0 7e b4 18 3c aa d8 4f 3c 42 c8 50 bc 79 69 a3 3c
       0.009320376 0.012685934 -0.012743058 0.019947754
0000d0 60 e6 8d bb f8 7f 22 3b 82 7c 55 3c aa d9 78 3c
       -0.0043304414 0.0024795514 0.013030173 0.015188614
0000e0 9c 8a b1 bb 8e 81 52 3c ac c8 97 bb 42 61 59 bc
       -0.005418135 0.012848271 -0.0046320762 -0.013267817
0000f0 cc 6f a8 bc 88 41 8c 3b a0 42 d2 ba a0 25 7a bb
       -0.020561121 0.004280273 -0.0016041584 -0.00381694
000100 64 f1 83 bb a1 c8 89 3c 49 5b 30 bc c0 8f c9 bb
       -0.0040265787 0.0168193 -0.010763952 -0.0061511695
000110 f2 f6 8c bc 78 c9 17 3b 31 32 b2 3c 76 b9 17 3c
       -0.017207596 0.0023160856 0.021752449 0.009260526
000120 90 a1 9b bb d7 e5 8b 3c b1 4c 83 3c ce 06 23 3c
       -0.0047494844 0.01707737 0.01602778 0.009950353
000130 e0 bc d8 3a f0 4e 9a bb 00 6b f6 3a 70 4c fc bb
       0.0016535781 -0.004709117 0.0018800199 -0.0076995417
000140 7c 3f db 3b 9f a9 9a 3c 78 59 d7 bb 3b 11 3e bc
       0.0066909175 0.01887971 -0.006571945 -0.011600788
000150 55 6e 65 bc b4 14 df bb 64 71 4a bc a0 c6 7d bb
       -0.014003356 -0.006807888 -0.012356136 -0.0038723126
000160 38 30 1d bc e0 15 90 3a 18 08 c9 bb 74 8a b1 bc
       -0.009594016 0.0010992847 -0.006134998 -0.021672465
000170 80 59 93 bc 1e 5d 5a 3c 2a ba 71 3c 10 6f 32 bb
       -0.017987013 0.013327865 0.014753858 -0.0027226843
000180 f5 59 b4 3c 9f 97 61 bc 13 31 62 bc 81 10 9e bc
       0.022015551 -0.013769059 -0.0138056455 -0.019294979
000190 46 c4 7a 3c bc b8 5a bc b2 16 19 bc 00 2b 03 39
       0.015305584 -0.013349708 -0.00934379 0.00012509152
0001a0 79 da 81 3c ce de 39 3c 71 9b 26 bc b6 b5 ef bb
       0.015851246 0.011344625 -0.010168896 -0.007315363
0001b0 8c cc a8 bc be cd 4e 3c 6f c5 85 bc d4 cc b0 bc
       -0.020605348 0.012622295 -0.016329495 -0.021582045
0001c0 9f 78 88 bc 0e b5 30 3c d1 30 54 bc 20 38 ad 3b
       -0.01665908 0.010785354 -0.012951092 0.0052862316
0001d0 af c4 1c bc 82 71 92 bc f0 c8 93 3b 30 7e b1 3b
       -0.009568377 -0.01787639 0.0045100376 0.005416654
0001e0 f0 94 91 bc e0 5e b0 3a 19 0e 97 3c ae c9 1c 3c
       -0.017771214 0.0013456009 0.01843934 0.009569569
0001f0 90 77 fe bb ea 62 66 bc 34 14 d0 bb e0 5d d5 3a
       -0.007765718 -0.014061669 -0.0063500647 0.0016278587
000200 00 ed cd bb 20 51 51 3a 81 e5 2c bc c8 b5 bc bb
       -0.006284356 0.0007984806 -0.010552765 -0.0057589747
000210 4e 99 6d 3c 22 7c 64 3c 90 55 e1 ba 20 67 c5 ba
       0.014501883 0.013945611 -0.0017191637 -0.0015060641
000220 8d 5c a3 3c 42 3f 26 3c 66 b4 20 3c 8d 43 97 3c
       0.019941593 0.010146918 0.009808635 0.018464828
000230 4b 9e 80 bc 44 39 c8 bb a7 56 33 bc c7 75 b0 3c
       -0.01570048 -0.006110342 -0.0109459525 0.021540536
000240 fa 9f e4 bb f2 a4 16 3c b7 f6 a0 bc 2d 14 a9 3c
       -0.0069770785 0.009194599 -0.019648893 0.020639503
000250 00 19 fd 39 dc 26 f9 3b 10 ce bb 3b 27 2a 30 bc
       0.00048274547 0.0076035094 0.0057313517 -0.010752237
000260 1c 64 07 bc 2e 83 2e 3c e1 28 95 3c 1c 7a 15 3c
       -0.008263614 0.010651393 0.01820797 0.009123351
000270 92 4f 75 3c 76 bd 40 3c de b1 59 bc f0 0e b4 3b
       0.014972584 0.011763921 -0.013287036 0.0054949448
000280 7c 96 8d bc a0 46 9a 3a 6f 97 65 bc da 2c 44 3c
       -0.01728367 0.0011770315 -0.014013155 0.011973584
000290 b0 6b ad bc 60 6a 82 ba 28 bd f6 3b 18 5e d2 bb
       -0.021169513 -0.0009949915 0.0075298734 -0.0064199083
0002a0 34 c9 40 bc e3 09 89 3c 72 c0 43 3c c8 03 07 3b
       -0.011766721 0.016728347 0.011947738 0.002060162
0002b0 7a 29 6b 3c 08 a8 bd bb 1f 7e 9b bc a9 a3 9f 3c
       0.0143531505 -0.005787853 -0.018981038 0.019487219
0002c0 40 0c 68 bc 60 90 89 3b d5 a8 a5 3c c0 fc 70 ba
       -0.014163077 0.004198119 0.020222107 -0.0009192936
0002d0 e8 e1 2d bb 8b 06 8e 3c 05 e7 a7 3c d8 5f 4e 3b
       -0.0026532356 0.017337104 0.0204959 0.0031490233
0002e0 68 3d 2a 3b 8a 6f 9d bc 10 64 07 3c 50 55 b8 ba
       0.0025976542 -0.019218225 0.008263603 -0.0014063511
0002f0 72 0a 9a bc 50 f5 99 bc ac 80 e7 3b 20 80 ab bb
       -0.018803809 -0.018793732 0.0070648994 -0.0052337795
000300 8c 21 0a 3c d6 b3 45 3c e0 17 90 3a 00 20 51 b8
       0.00843085 0.012066802 0.0010993443 -4.9859285e-05
000310 10 5c a4 bb 18 1a 80 3b 8e 87 11 bc 98 22 49 3b
       -0.0050158575 0.0039093606 -0.008882416 0.0030690785
000320 0c c0 70 bc 07 30 63 bc 4b f8 a3 bc 7c ae a7 bc
       -0.014694225 -0.013866431 -0.020015856 -0.020468943
000330 4c 5a 74 bc 47 64 11 bc f4 0d c7 bb a1 79 88 3c
       -0.014914107 -0.008874006 -0.0060746614 0.01665956
000340 bc 02 e3 3b 58 5e f7 3b 5d 54 27 bc f0 f7 a2 3b
       0.006927816 0.0075490884 -0.010212985 0.004973404
000350 de 53 52 3c 83 1e 98 bc b8 28 6f bc 7c 52 a6 3b
       0.012837378 -0.018569237 -0.01459711 0.005075751
000360 bb 89 33 bc d4 d1 d4 3b 06 64 3e 3c b5 04 80 bc
       -0.0109581305 0.00649474 0.011620527 -0.015627244
000370 c0 b5 e9 39 30 60 93 3b d2 08 79 3c 92 d4 01 3c
       0.00044576637 0.0044975504 0.015199857 0.007924216
000380 ea 50 6e 3c e0 38 f5 3b 00 b0 d8 ba 32 97 43 3c
       0.014545659 0.0074835867 -0.0016531944 0.011937903
000390 de 2c 50 3c 40 72 b9 3b 3b 43 98 3c 90 eb 82 ba
       0.01270601 0.0056593716 0.018586745 -0.0009988416
0003a0 e4 26 a7 bc a8 18 88 bb 80 46 70 bc 8d e5 79 bc
       -0.020404287 -0.00415333 -0.014665246 -0.015252483
0003b0 6a 1e 7a 3c 60 0e 62 ba 65 b0 ae 3c 3f 1b 8c bc
       0.01526604 -0.0008623358 0.021324346 -0.017102836
0003c0 10 e7 00 3c dc 7d e4 3b d5 77 b2 bc 06 85 db bb
       0.00786759 0.0069730114 -0.021785656 -0.0066992072
0003d0 51 32 8f bc 4e 10 27 3c e8 70 0b 3b 30 fa c0 3a
       -0.017480047 0.010196758 0.0021277014 0.0014722999
0003e0 ec bd 13 3c 87 56 8c bc 30 bf d5 3a 79 5f 02 bc
       0.009017449 -0.017131103 0.0016307589 -0.007957333
0003f0 ee 42 6a bc 42 5f 22 3c fa 09 6a bc 68 b2 18 bb
       -0.014298184 0.009910407 -0.014284605 -0.0023299698
